Frameworks_on_complex valued/module_save_2D/CCNNCGHres_250413_-z_z_100mm.pth (torch, 376838 bytes, 120 tensors)

ccnn1.down1.C_Conv2d1.conv_r.weight f4 [4, 1, 3, 3]
000000 d5 ef 9c 3d c6 68 b7 be 9a 7d 45 be be c2 c1 bd
       0.07662932 -0.35822123 -0.19286194 -0.09460972
000010 37 a2 10 bd da c1 d1 be c4 bf 48 3e fc 5c 71 3e
       -0.03531095 -0.4096821 0.19604403 0.23570627
000020 e5 6b 72 3e b9 49 42 bd c3 a4 4c 3d 6e 1b 66 3e
       0.23673971 -0.04743359 0.049961817 0.22471401
000030 99 b2 db bd 2b 20 82 3e c5 c6 c8 be d7 19 e2 3c
       -0.10727424 0.25415167 -0.3921415 0.027600212
000040 2b 7e fb 3e 85 59 83 be 37 41 53 3e a7 5e b6 3c
       0.49119696 -0.25654235 0.20630346 0.02226193
000050 36 29 70 3e 54 1a b8 bd 4a 1a 0b be d3 8e 9b be
       0.2345322 -0.08989397 -0.13584247 -0.30382404
000060 84 35 09 3e 08 24 7b be 58 01 e3 be 88 47 e4 bd
       0.13399321 -0.24525464 -0.44336963 -0.11146456
000070 44 3d a7 3c b5 33 bc 3d 29 29 93 bd 9c a1 ca 3d
       0.020414956 0.0918955 -0.07185585 0.09894106
000080 f6 c8 b3 3e b4 4e 81 3d 4c 8b 26 3f c1 28 36 3f
       0.3511426 0.063138396 0.650563 0.71155936

ccnn1.down1.C_Conv2d1.conv_r.bias f4 [4]
000000 45 26 ca 3e 89 4b 01 3e 51 cb 20 3d 8e 7d cf 3b
       0.39482322 0.1262647 0.039256398 0.006332106

ccnn1.down1.C_Conv2d1.conv_i.weight f4 [4, 1, 3, 3]
000000 9e 66 b2 3d 1b d6 16 bf 20 a9 4e 3f 55 d3 57 be
       0.08710979 -0.5892045 0.80726814 -0.2107671
000010 2a df 2c 3d 30 17 5e 3f 53 5d cb 3d 28 f5 37 bf
       0.042205013 0.8675413 0.099299096 -0.71858454
000020 e8 90 67 3f e1 7a b4 3d ee ec 8b 3e bb 3c 92 3d
       0.90455484 0.088125 0.273292 0.0714049
000030 7e b7 f4 bd e7 1e c3 3e 60 66 21 3f 17 43 f0 3b
       -0.11949061 0.38109514 0.63046837 0.0073322165
000040 e3 41 55 3e cf 51 45 3d e1 ac 47 3d d1 18 26 3d
       0.20825915 0.048173722 0.048748855 0.04055101
000050 77 df 08 3d b3 ff f5 bd e9 14 29 be bf 95 81 be
       0.033416238 -0.120116614 -0.16511883 -0.2530956
000060 46 2c f0 3d 68 56 02 3e 1f 82 13 bb 80 df ac 3c
       0.117271945 0.12728274 -0.0022507978 0.021102667
000070 95 30 ae 3d 4c e7 8a 3d 5a ff 13 3e 9c 91 7c 3e
       0.0850536 0.06782398 0.14452878 0.2466492
000080 22 92 91 3e ff cd 17 bd 07 d2 dc 3e 79 27 21 3f
       0.28431803 -0.037061688 0.43128988 0.62950855

ccnn1.down1.C_Conv2d1.conv_i.bias f4 [4]
000000 43 b0 40 be c2 74 e8 3c 94 f5 9f bc 1a 0c 9a bc
       -0.18817239 0.028375987 -0.01952628 -0.018804599

ccnn1.down1.C_conv2d2.conv_r.weight f4 [4, 1, 1, 1]
000000 b8 64 18 bf d6 34 2c 3d a1 ff a2 3e 30 0d f2 3e
       -0.59528685 0.042042576 0.31835654 0.47275686

ccnn1.down1.C_conv2d2.conv_r.bias f4 [4]
000000 3e 87 49 be 28 a2 85 3e ee 2c 88 bd 3f b6 d3 3e
       -0.19680497 0.26100278 -0.06649195 0.4134998

ccnn1.down1.C_conv2d2.conv_i.weight f4 [4, 1, 1, 1]
000000 d3 84 8c bf d4 b7 fd 3e 10 ec ff bc 10 da 14 be
       -1.0978035 0.49554312 -0.031240493 -0.14536309

ccnn1.down1.C_conv2d2.conv_i.bias f4 [4]
000000 ba 37 81 3c 83 8d 08 3d 76 5e 12 3f bf ee d1 3e
       0.015773643 0.03333808 0.57175386 0.4100246

ccnn1.down2.C_Conv2d1.conv_r.weight f4 [8, 4, 3, 3]
000000 5c 3f ab bd 2b 86 ae bd aa 05 91 bd 87 c8 1d 3d
       -0.08361694 -0.08521684 -0.070811585 0.038521316
000010 e8 c4 ba bc 94 eb 16 bd 7a 3d 6c 3d 28 73 89 3d
       -0.02279897 -0.03684576 0.057675816 0.067114174
000020 39 26 c2 bd dd 19 db bc 9c 43 94 3d 40 0b b6 bd
       -0.09479947 -0.026745731 0.07239458 -0.088888645
000030 62 1c e8 bb 45 2f 06 bd e2 40 db bd 5d 8e d4 bd
       -0.0070834616 -0.032759923 -0.10705735 -0.10378716
000040 f3 26 ea bd 9b a6 af bd 21 cb 88 3d d1 58 9c 3d
       -0.1143321 -0.08576699 0.06679369 0.07634128
000050 a7 b0 3a ba 98 8a 67 bd 51 26 8e bd 26 b5 3d bd
       -0.000712166 -0.056528658 -0.06940902 -0.046315335
000060 b0 22 de bc 5e c0 7e bd d8 4f 92 bc 65 29 da bd
       -0.02711615 -0.062195174 -0.017860338 -0.10652427
000070 1d 1f d0 3c b7 3c a8 bc 48 0b a1 bd 9f 23 c2 bd
       0.025405461 -0.020536764 -0.0786348 -0.094794504
000080 b2 6f ee bd b5 77 8f 3d d0 1c 89 3d 6f fd 24 3d
       -0.11642398 0.07005254 0.06694949 0.040280756
000090 a2 ca 20 bd 56 7c 0a 3a eb b5 b1 be a6 0d f3 3d
       -0.039255746 0.000528281 -0.34709105 0.118678376
0000a0 a9 a4 a1 3d 93 38 0f 3f d0 b8 03 be 5d 96 15 bf
       0.078927346 0.559457 -0.12863469 -0.5843256
0000b0 95 41 07 bf 30 47 a6 bd 3f 31 8a 38 54 09 14 be
       -0.52834445 -0.08119047 6.5895256e-05 -0.14456683
0000c0 a5 74 0c bd 51 61 66 bd 3d 09 82 3e cf f1 8a bd
       -0.03429093 -0.056245152 0.25397673 -0.067844026
0000d0 ee 3d 42 bc d3 58 00 bd 60 09 e1 bc 22 0b 67 3d
       -0.0118555855 -0.03133471 -0.02747029 0.0564071
0000e0 fa c4 65 3d 39 55 99 bd a5 e1 56 bc 06 62 05 be
       0.056096055 -0.07486958 -0.013115321 -0.13025674
0000f0 ba a3 f9 3c f2 40 67 3d 0e 8b 23 bd c0 bc 19 bc
       0.030473579 0.05645842 -0.039927535 -0.00938338
000100 1e 14 0c 3e f7 bf a9 bc dd 98 ea bd 2a 35 9c bc
       0.13679549 -0.020721419 -0.114549376 -0.01906832
000110 0b f1 12 bd 17 5c a8 bc d6 5b b0 bb 53 d8 6e 3c
       -0.035874408 -0.020551724 -0.0053820414 0.014577943
000120 3b e9 34 3e 48 8e b1 3d 59 15 8f 3d 8d 51 a1 be
       0.17667095 0.08669716 0.069864936 -0.3150753
000130 e6 a3 b1 bd 79 f4 8a bd 8f 65 d9 3d a9 ce 95 3d
       -0.08673839 -0.06784911 0.10615074 0.07314808
000140 61 47 13 3e 1c 1b 9c 3d 1a 28 eb 3d 13 85 b3 3d
       0.14382698 0.07622358 0.11482258 0.08765616
000150 96 14 ca bd 3a dc e5 bd 6b ca d6 3d cc 16 63 3d
       -0.09867208 -0.112236455 0.10487827 0.055441663
000160 55 71 52 3e 7f 2b 11 bd 62 64 8e bd b7 0d 01 bd
       0.20551045 -0.03544187 -0.0695274 -0.03150722
000170 87 84 3c bd 8c cd 53 3d 1a 1d 8c bd 9b 4a 17 3d
       -0.046024825 0.051709697 -0.06841488 0.036936384
000180 03 8e d5 bd 3a bb 60 3d 3c a3 a0 bc 3c 7f de 3d
       -0.10427477 0.054866053 -0.019609086 0.10864112
000190 11 fe 31 3e 71 35 24 bd 90 44 0c 3c 2b 0a 81 3c
       0.17382075 -0.04009003 0.008561268 0.015751919
0001a0 2e 04 af 3d e7 91 53 bd 80 99 d9 3d b7 fd 03 be
       0.08545719 -0.051652815 0.10624981 -0.12889753
0001b0 f6 d3 28 3d dc 7d ec 3c 1b b2 62 3d bd 32 ef 3c
       0.041217767 0.028868608 0.055345636 0.029198999
0001c0 15 64 dc 3c 78 c9 42 3d 18 7f 9a 3c 9d d3 4e 3d
       0.026903192 0.047555417 0.018859431 0.05049478
0001d0 61 7e 15 3e 91 93 5b 3d 0b 0c d6 bd 92 fc 5e 3d
       0.14598991 0.053607527 -0.10451516 0.05444009
0001e0 01 31 d5 bd f1 bf 63 bd 1a 09 f9 bd e5 db 92 3d
       -0.104097374 -0.05560297 -0.12159939 0.07170848
0001f0 1c d5 96 bd 2f 12 1e be 6d 53 c2 3d e9 21 87 bd
       -0.07364866 -0.15436624 0.094885685 -0.06598265
000200 d5 b8 bf 3c f8 90 63 3d 69 80 88 3d 9f 98 90 3d
       0.023403564 0.055558175 0.06665117 0.0706036
000210 a0 79 2c 3c 73 cd 99 bc 75 87 b9 3d 10 a4 05 be
       0.010527045 -0.018774724 0.090590395 -0.13050866
000220 d9 7a 64 bc b5 d2 5b bb 53 1a 2e bd 38 bb f8 bd
       -0.013945305 -0.003354234 -0.042505573 -0.12145084
000230 5e 96 00 be a0 64 72 3d e1 fa 52 3d 64 42 9a bd
       -0.1255736 0.059177995 0.051508788 -0.07532194
000240 a5 a8 6f 3d cf bc 36 be 1a a1 58 bd 1c f9 a9 be
       0.05851044 -0.17845462 -0.052888013 -0.33197868
000250 6d c5 26 3e 6c a9 87 3d 2b 4d b0 bd 4d 5f 07 3e
       0.1628625 0.066241115 -0.086084686 0.13219948
000260 73 56 a4 bd 56 8f f9 3c dd 19 08 bd f5 90 46 bc
       -0.080243014 0.030463856 -0.03322779 -0.012119521
000270 42 d5 09 be af 86 4e 3e ee 14 e5 bb b8 1b 6a 3c
       -0.13460258 0.20168565 -0.0069910204 0.014288835
000280 47 49 d3 3c 70 47 83 39 67 6e 4e 3c 6a db 78 bc
       0.025791777 0.00025039492 0.012599564 -0.015189031
000290 28 6f 3a 3d 78 f3 eb 3d a1 0b fd 3d 37 b0 1a 3d
       0.045516163 0.11521047 0.12355734 0.037765708
0002a0 57 90 f7 bc 26 71 b2 3d 8b a5 5e bc e6 b2 b1 3d
       -0.030220194 0.087129876 -0.013589273 0.086767
0002b0 81 ad ef 3c f0 b8 e7 bc 72 de 41 be e2 fa 20 bb
       0.029257538 -0.028286427 -0.18932512 -0.00245636
0002c0 3c e5 c4 bb 94 85 e3 3d 5a f8 d9 3b 26 dd 97 3d
       -0.006008772 0.111094624 0.0066519203 0.074152276
0002d0 a6 2b f4 3d 96 0d 28 3e e3 4f fb bd 8f f6 46 3d
       0.11922388 0.16411433 -0.122710966 0.04857498
0002e0 ba da 55 be 32 a7 65 3e 71 79 63 bd 1c af 56 3d
       -0.20884219 0.22427061 -0.055535737 0.05241309
0002f0 6e 49 f1 bc 5c 3a d8 bd 11 11 81 3d 65 75 29 bd
       -0.02945396 -0.10558006 0.06302083 -0.04137172
000300 d9 ec 8f 3d f7 90 1a 3d 38 5e 8f 3d eb 5d 6c bd
       0.07027597 0.037735905 0.07000393 -0.057706755
000310 f6 d2 00 3e b3 db 53 bd 0e 62 ab bd 78 0f 26 bd
       0.12580475 -0.051723193 -0.08368312 -0.040542096
000320 8c 72 08 be 1d 9f 37 bd 4a 84 ff bc 44 bf 75 bb
       -0.13324946 -0.044829477 -0.03119101 -0.0037498036
000330 20 ae d1 3d 55 5a 2a bd b9 76 87 bd 28 e7 bc 3d
       0.1023829 -0.041590054 -0.066144414 0.09223777
000340 27 a2 9c 3d 58 67 5f 3d 5b 99 7c bd 88 8c a6 bd
       0.076481156 0.054541916 -0.06166969 -0.08132273
000350 28 6b 3a bd 00 64 8f 3d cf 58 b7 3d f2 ac 9f 3d
       -0.04551235 0.07001495 0.08952486 0.077966586
000360 9c a2 63 be 1f 97 17 3c 53 94 14 be 51 82 01 3e
       -0.2223 0.009252339 -0.14509706 0.12647368
000370 7a 57 1c 3e ce c4 a1 be 1d 9f ed 3d 5a 90 9d 3d
       0.15267745 -0.31595463 0.11602614 0.076935485
000380 88 03 ef 3e f9 0b 18 bb cf f2 e9 3d 08 c4 3a be
       0.46682382 -0.0023200496 0.11423265 -0.18238842
000390 e1 cc 8a bd 91 58 8c 3d 46 28 2d 3c 6f 75 44 3e
       -0.06777359 0.0685283 0.010568684 0.19185422
0003a0 16 74 47 be f1 2b 15 3e b2 43 46 3c 80 10 91 bd
       -0.19477877 0.14567544 0.012101101 -0.07083225
0003b0 de dd 6e bd 13 78 0c 3e 67 8a 8e 3c 6a ae 41 bc
       -0.058317058 0.1371768 0.01739998 -0.011821369
0003c0 3c b5 00 bd 49 85 66 bd 99 78 ca bc 92 74 1f be
       -0.03142284 -0.056279454 -0.024715709 -0.15571812
0003d0 da bc f9 bd 83 8b f7 bd 9d de d2 3c 88 09 0b 3d
       -0.12194224 -0.120871566 0.025740916 0.033944637
0003e0 01 67 f8 3b bb 56 93 bd ce 5c 0b be 41 27 08 3e
       0.0075806384 -0.07194277 -0.13609621 0.13296224
0003f0 c4 eb b6 3d 11 da 6f 3e 78 5b 63 3e 4d 7f a7 bd
       0.089316875 0.2342303 0.22202861 -0.081785776

ccnn1.down2.C_Conv2d1.conv_r.bias f4 [8]
000000 b1 fe 23 be b6 84 74 3c 4f cc d9 3c e1 ae ca bd
       -0.16015126 0.014924219 0.02658668 -0.09896637
000010 26 d4 2e bd ad f0 0a be 86 da c4 bd a4 e7 5e 3d
       -0.04268279 -0.13568373 -0.096119925 0.05442013

ccnn1.down2.C_Conv2d1.conv_i.weight f4 [8, 4, 3, 3]
000000 ff 5e 38 bd 59 30 8e bd 02 08 e3 3d 20 85 54 bd
       -0.04501247 -0.06942815 0.11085512 -0.05188477
000010 79 44 32 3c c3 94 ac bc 4b eb a8 3d d1 9f a1 bd
       0.010880583 -0.021067029 0.082480036 -0.07891811
000020 d6 ec b8 bc 20 c3 c2 bd 92 c8 26 3d 52 5b 17 3c
       -0.02257387 -0.095098734 0.040718623 0.009238081
000030 4e 3d cf 3d 4b 46 96 3d a4 00 1d 3b 03 60 2f 3c
       0.10119115 0.07337626 0.002395668 0.010704043
000040 34 b8 50 bd dd 7d 2c bd 2f 8d 33 bc 44 2c af 3d
       -0.05095692 -0.04211222 -0.010958954 0.08553365
000050 fb a0 d1 3c cb 1a 90 3d 2a 4a 05 3e ad 1a 2b 3d
       0.025589457 0.0703636 0.13016573 0.041773487
000060 d3 37 b4 3d 80 e0 1f bd 7b ed 48 3d 51 a3 c6 bd
       0.0879971 -0.03903246 0.049054604 -0.09699119
000070 df 79 ab 3c 4b e0 52 3d 62 d6 0a bd 35 7e 94 bc
       0.020932136 0.051483434 -0.033895858 -0.018126586
000080 12 68 40 3c 86 ec b5 3d bf e5 2d 3d 67 15 87 bc
       0.011743562 0.08883004 0.04245543 -0.016489698
000090 8b b5 94 3d 7d 0e 14 3e 30 69 67 3e eb 55 75 3d
       0.07261189 0.14458652 0.2259872 0.05989639
0000a0 d5 e8 b8 bd f1 e8 9a be 45 6f f2 bd b3 cc 3c be
       -0.09028784 -0.30255845 -0.11837629 -0.18437462
0000b0 a5 0c d1 3d a8 88 1c bd 3b 68 81 3d f8 2d e2 3c
       0.1020749 -0.038216263 0.063187085 0.02760981
0000c0 79 7a f0 3d 4d b4 b7 bb 76 e9 c4 3d 7b 13 ea bd
       0.1174211 -0.0056062103 0.09614842 -0.11429497
0000d0 b5 f2 81 bd e2 f0 9f bd 40 23 5f bd 38 5d 9e 3a
       -0.06345121 -0.078096166 -0.054476976 0.0012082225
0000e0 85 14 5a bc 1e 6f a8 3d d7 c6 8b 3d cf fe 38 bd
       -0.013310556 0.08224319 0.06825035 -0.04516488
0000f0 fc 62 ee 3d 68 9e 11 bd cc 6a 0e bd 24 58 ca bc
       0.116399735 -0.03555146 -0.03476982 -0.024700232
000100 f5 5e 56 3c 0d ea bb bd 87 33 05 bd 2b de 84 bd
       0.013084163 -0.09175501 -0.032519843 -0.06487688
000110 ce 84 f1 bd 7c 76 2c bb 97 b3 90 3b d1 24 72 bd
       -0.117929086 -0.002631574 0.00441594 -0.059117142
000120 61 48 e6 bd 6e 19 c3 be 6b f8 7e bd c2 3c 10 3e
       -0.11244274 -0.3810534 -0.06224863 0.14085677
000130 18 7e d7 3e bd 72 88 3c 8e 08 4e 3d 41 75 51 bf
       0.4208839 0.016656274 0.050301127 -0.8181954
000140 f1 cd 01 3e 1e ca df 3d 33 10 36 3d 2b 00 37 3d
       0.12676217 0.10927223 0.044449043 0.044677895
000150 40 5e a4 3a aa 43 4e 3d 7f 42 86 bd 40 e7 1f 3c
       0.0012540296 0.0503575 -0.06555652 0.009759724
000160 ad f9 ce bd 7b 3f 1c bb 4c c2 a4 3d 85 62 aa 3d
       -0.101062156 -0.0023841548 0.08044872 0.08319572
000170 f7 35 1d bd 88 1f 52 bb 52 45 8e bc af c1 d3 3c
       -0.038381543 -0.003206225 -0.017367039 0.025849191
000180 8d 41 c5 bc 73 9a d3 3d 39 5e 0a 3e ba 7b 6c 3d
       -0.024079109 0.10332193 0.13512506 0.057735182
000190 e5 2f 46 3d d8 0b 85 3c 93 cf 12 be 4a f5 d8 bd
       0.04838552 0.016241 -0.14336996 -0.1059366
0001a0 39 6d 1b bd d9 e7 c4 3d 4c 1d 83 be 1b 36 40 bd
       -0.03794596 0.09614534 -0.2560829 -0.0469266
0001b0 aa 03 4c bd 0a 4c 59 3d c6 e7 6d 3c 55 31 86 3c
       -0.04980818 0.053051032 0.014520591 0.016380945
0001c0 4e 4d a3 bd 22 48 e5 3c 82 ce 90 bc 4f ef 79 3d
       -0.07973729 0.027988497 -0.017676596 0.061019238
0001d0 82 26 0c 3d 02 fe aa bd ba fc 90 3d 7e c5 8d bd
       0.03421641 -0.083492294 0.07079454 -0.06922434
0001e0 6c 35 f4 3c ec 8a a9 bc 68 eb 04 bd a2 b1 a0 3b
       0.02981063 -0.020696126 -0.032451063 0.004903988
0001f0 20 7b b1 3d d1 c1 82 bd b0 3f e7 3c 07 20 22 3d
       0.08666062 -0.06384624 0.02822861 0.039581325
000200 09 4f e4 3d b0 77 ea 3d 13 96 9c 3d 1a dc 78 bb
       0.11147887 0.1144861 0.07645812 -0.0037972988
000210 0e de 00 bd 50 4e cd 3d 18 68 b0 bc b5 78 1e bd
       -0.031461768 0.100247025 -0.02153401 -0.038689334
000220 4c f6 60 bb 2c e2 85 3d 31 13 ca 3d 40 b0 0c be
       -0.0034326492 0.065372795 0.09866942 -0.13739109
000230 1a 1a 99 bd aa 43 99 3d d6 3e cd 3d a8 c0 16 bd
       -0.074756816 0.07483609 0.10021751 -0.036804825
000240 02 06 77 bd 4f 1c 4a 3e d4 bb 23 3e 5e 56 81 3e
       -0.060308464 0.19737361 0.1598962 0.25261205
000250 62 b3 ac be 20 c4 77 bd bb 4d 75 3e 3f fb 96 3e
       -0.33730608 -0.060489774 0.23955433 0.2948856
000260 a9 c5 2d be 97 9c f5 bd a5 74 04 bd c7 9c a4 3c
       -0.16969933 -0.11992758 -0.032337803 0.020094289
000270 75 7d 08 3e 8f 22 4d 3d e3 6a 09 be 5e ad a1 3b
       0.13329108 0.050081786 -0.1341968 0.004933997
000280 03 59 cb 3d cd f7 01 bc 58 2f 1a 3e 6d 04 9a 3b
       0.09929087 -0.0079326155 0.15057123 0.0047002346
000290 ce aa b7 3c 05 48 bd bd 97 97 1a 3d b7 54 94 bd
       0.022420313 -0.09242252 0.037742224 -0.072427206
0002a0 33 63 cd bd 05 60 1b bc a5 3e 09 bd 66 19 04 3e
       -0.100286864 -0.009483342 -0.033507008 0.12900314
0002b0 64 ca d0 3d c5 f6 97 3d 39 5e 48 be f8 ce 8f 3d
       0.10194853 0.074201144 -0.19567193 0.07021898
0002c0 f9 68 e1 bd 09 de dd 3d ac da 78 3e 6c 59 a3 3c
       -0.1100635 0.108333655 0.24302167 0.0199401
0002d0 42 87 3a 3d 08 78 e7 3c 22 e5 49 3d 67 08 ac bd
       0.04553915 0.028255478 0.049290784 -0.0840004
0002e0 5d 37 90 bc c2 c6 53 be d3 5d 1f be 94 c7 47 3e
       -0.017604524 -0.20681289 -0.15563135 0.19509727
0002f0 8b 7d a9 3d 2b 88 99 bd 4c 08 4d be 4d 2d ce bd
       0.082758985 -0.07496675 -0.20022696 -0.10067234
000300 62 04 f9 bc 83 ef d0 bd 9d a0 d1 bd eb 7b cc bd
       -0.030397598 -0.10201933 -0.10235713 -0.09984573
000310 11 a1 1d 3e 23 c6 cd 3d c9 e4 82 3d 84 e1 d7 3c
       0.15393473 0.10047557 0.063912936 0.026352651
000320 0e 3d a5 bd 48 98 02 bd 9a 33 f5 bc 97 f8 ef bd
       -0.08068286 -0.031883508 -0.029931832 -0.117173366
000330 c2 c0 b4 3c 96 62 08 be d8 1a 3f bd 12 2d d3 3d
       0.02206457 -0.13318858 -0.04665646 0.10311331
000340 50 9b 40 3e be ba 62 3e 6b bb 8d 3d 9c a7 f8 bd
       0.18809247 0.22141549 0.06920513 -0.12141344
000350 fb c3 99 be 6a 5c 69 bd 97 c2 b5 3d 7e 63 a1 3e
       -0.30032334 -0.0569729 0.08875006 0.3152122
000360 29 80 9c 3d 99 c9 03 bf fe e4 4e 3e 98 0c 03 3d
       0.07641632 -0.5147949 0.20204541 0.031994432
000370 42 1a 39 3f 01 d8 f2 be c9 35 9c 3d 6a a5 66 be
       0.7230569 -0.47430423 0.07627446 -0.22524038
000380 26 4e 81 3e 83 d8 c1 bc 91 6f 61 bc 21 47 9b bd
       0.25254935 -0.023662811 -0.01375951 -0.07581926
000390 3b 75 06 3d c5 ca e1 bd 42 b3 b1 3c 14 6f 8a 3d
       0.032826643 -0.11025003 0.021691922 0.06759468
0003a0 85 0e e5 3d 31 f0 10 be 24 be ca bd 1e 82 9e bd
       0.1118441 -0.14154126 -0.09899548 -0.07739662
0003b0 e1 11 da bd 57 90 e7 3d 64 4e 6b bd 71 cc de bd
       -0.106479414 0.113068275 -0.057447806 -0.10878838
0003c0 44 03 83 bd db 99 ed 3c eb 69 e9 bd c8 0e 09 3d
       -0.06397107 0.029004028 -0.113971554 0.033461362
0003d0 74 1c 99 3c 6a 40 22 bd 5f 05 54 be 97 38 1b be
       0.018690325 -0.03961221 -0.20705174 -0.15158306
0003e0 62 9b 2c bd f0 62 16 3c 36 aa 61 3d c7 c9 8d bd
       -0.042140372 0.009178862 0.055093966 -0.069232516
0003f0 b9 71 a3 bc ff b5 41 3e 64 77 0e be 64 c8 b5 bd
       -0.019951688 0.18917082 -0.13912731 -0.08876112

ccnn1.down2.C_Conv2d1.conv_i.bias f4 [8]
000000 9f 71 80 bd 63 ba 42 bd 99 43 75 3d a0 ca b5 bd
       -0.062716715 -0.047541033 0.05987892 -0.08876538
000010 78 a6 19 3e 45 12 3d bd cb b3 05 be 8b 02 3b 3c
       0.15004909 -0.04616 -0.13056867 0.0114141805

ccnn1.down2.C_conv2d2.conv_r.weight f4 [8, 4, 1, 1]
000000 a2 e6 e8 3e 73 ce 56 be e6 e0 d1 bd 3b dd ad 3e
       0.4548846 -0.20977192 -0.10247974 0.33957848
000010 1f ee f9 38 62 54 90 3e 16 5d 56 3e 89 57 c5 be
       0.00011917599 0.2818938 0.20933947 -0.38543347
000020 f8 3e 08 be 6e 2f 76 be 3c c1 73 3e 2d 85 86 be
       -0.1330527 -0.2404153 0.23804182 -0.2627348
000030 8d 09 1c 3e 1e e7 33 3e 06 d0 2c be 1c df 3a 3d
       0.15238018 0.17568633 -0.1687623 0.04562293
000040 a1 f5 68 3e 38 6c 35 be 3b 79 e8 3c ed 53 76 be
       0.2274995 -0.17717063 0.02837812 -0.24055453
000050 f8 ac dc be c8 35 b6 be 50 8e 8e 3e 00 0c 26 be
       -0.43100715 -0.35587907 0.2784295 -0.16215515
000060 58 72 0e 3e 4c 17 b2 bd 77 e7 8d 3d d5 03 3c 3d
       0.13910806 -0.0869585 0.06928914 0.045902092
000070 33 5c 87 be 0d a8 85 be d9 fc 71 3e 92 fb 3b be
       -0.2643753 -0.26104775 0.2363161 -0.18357685

ccnn1.down2.C_conv2d2.conv_r.bias f4 [8]
000000 d4 c3 bc be 47 c4 10 3e b2 7a c3 3c 06 98 2e be
       -0.36868155 0.14137374 0.023862217 -0.1705018
000010 fb 3d 6c be 1d 75 5c 3c f7 2c 24 be f4 83 1a bd
       -0.23070519 0.013455656 -0.16032778 -0.037723497

ccnn1.down2.C_conv2d2.conv_i.weight f4 [8, 4, 1, 1]
000000 d6 dd df bd 42 32 56 bc b4 b1 5a be 29 af 65 bc
       -0.10930984 -0.013073506 -0.21356851 -0.014018812
000010 8f e5 92 bc c0 68 8b 3a bf 89 a1 3e c8 ab a0 bd
       -0.017931728 0.0010636076 0.31550404 -0.07845265
000020 0b d3 05 3f 63 de a6 3d 40 af 32 3e 27 15 32 3d
       0.5227515 0.08147886 0.17449665 0.043477204
000030 03 d5 69 be 95 94 3d be 2e f4 8c be 6a 28 4e 3e
       -0.22835164 -0.18513711 -0.27530044 0.20132604
000040 10 50 f3 bc 75 9b 68 bc 7a c8 7b be a9 bb 1a bd
       -0.029701263 -0.01419722 -0.24588194 -0.037776623
000050 2d 59 7f bd d6 8c 3f 3e 76 fb 2a be 33 f7 29 3d
       -0.062340904 0.18706068 -0.16697487 0.041495513
000060 48 91 50 3d 15 b0 60 bc 96 eb c1 3e 14 9d b7 bc
       0.0509198 -0.013713856 0.3787505 -0.022413768
000070 34 79 85 be ce 55 8b be b7 f1 5c 3e 94 fa 75 3e
       -0.26069033 -0.272139 0.21576582 0.24021369

ccnn1.down2.C_conv2d2.conv_i.bias f4 [8]
000000 3e 82 59 3d 17 a4 60 3e a9 02 b2 3d 95 f1 3f 3e
       0.053102724 0.21937595 0.08691914 0.187445
000010 e9 4e 88 be 2c ba 6e be 41 a3 b6 3e b7 7c 35 3c
       -0.26622704 -0.23313206 0.35671428 0.011077098

ccnn1.down3.C_Conv2d1.conv_r.weight f4 [16, 8, 3, 3]
000000 7f d3 84 3c ef 97 b6 bc 81 b5 d0 bc 41 4e 68 3d
       0.01621413 -0.022289244 -0.025477173 0.056715254
000010 94 a5 a3 3e a3 d0 9c be 17 00 72 3e e5 f3 d0 3e
       0.31962264 -0.30627927 0.23632847 0.40811077
000020 0a 9d 4f 3d 35 cc 20 bd af ba 4d bc 9b 7f 74 bd
       0.050686873 -0.039257247 -0.012556716 -0.059692007
000030 c3 73 fc bd be d8 50 bd ac 5d 02 3e 67 18 8d bc
       -0.12326767 -0.05098795 0.12731045 -0.01722355
000040 d0 d3 b1 be 19 42 d9 3d c2 ce 2f bd 34 b8 f7 bc
       -0.34731913 0.1060831 -0.04292179 -0.030239202
000050 72 77 48 3d 4b 84 90 3d 54 0e 08 3e e0 e5 5b 3e
       0.048942037 0.07056483 0.13286716 0.21474409
000060 f9 10 8a bd 47 12 1d 3e ce 11 91 bd ea 8c 22 bd
       -0.067415185 0.15339004 -0.07083474 -0.039685167
000070 62 9b 3f be 77 18 14 be 45 ad 25 be cb 2d 54 be
       -0.18711618 -0.14462458 -0.16179378 -0.20720594
000080 1c 86 04 be 68 2b ee bd 04 92 c5 bd 0a c3 f9 bd
       -0.12941784 -0.11629373 -0.09646991 -0.12195404
000090 91 14 05 bb d5 16 d9 bd 82 b1 b3 3d 67 2e 34 be
       -0.0020306448 -0.10600058 0.08774091 -0.17595826
0000a0 db 6c 90 be 5d e4 87 bd 3d a8 63 bd 5e fc 20 be
       -0.2820805 -0.06635354 -0.055580366 -0.1572127
0000b0 f5 dd 55 bd 69 8a 9f 3c a5 e1 2a be 35 3b 8b bb
       -0.052213628 0.019475179 -0.16687639 -0.0042490014
0000c0 ba 28 96 3d b7 48 88 be f6 7d 14 3e 3e 3b 29 3d
       0.07331987 -0.26617977 0.14501175 0.041316263
0000d0 2d 06 20 be 55 47 f1 bd 52 0f ac 3c 58 27 c4 bd
       -0.15627356 -0.11781184 0.021003399 -0.09577817
0000e0 42 d1 33 bd f7 57 ee bc 3b 66 b6 bd 33 84 21 be
       -0.043900736 -0.02909468 -0.08906218 -0.15773086
0000f0 58 f6 0a 3c 19 c6 be 3d 21 17 a7 bd a1 89 b0 bd
       0.0084815845 0.09315128 -0.08158708 -0.08620001
000100 8c 32 81 bd 1b 4c 91 bd 99 c0 25 3d 71 e5 05 bd
       -0.06308469 -0.07094594 0.04046688 -0.032689516
000110 9a bd 25 bd a1 62 04 3e 46 52 4e 3e fd 6c d0 bd
       -0.04046402 0.12928249 0.20148572 -0.10177038
000120 ca 28 e9 bd 9f 46 70 3d c2 47 96 bd 72 91 2b be
       -0.11384733 0.0586611 -0.073379055 -0.16754702
000130 a2 5d 43 3e 96 4a d8 bd a7 6b 60 bc d9 14 97 3d
       0.19078687 -0.10561101 -0.013697541 0.07377023
000140 bf 5e 5f be 5c d3 74 3d fb 04 07 3c 55 9e c3 3d
       -0.21813487 0.05977188 0.0082409335 0.09551684
000150 9b f9 0e bc 8f 69 5a be 2e bd 97 3c f5 18 29 bb
       -0.008726503 -0.2132933 0.018522825 -0.002580223
000160 c4 42 e4 bc 01 98 11 3e 47 88 af 3d 65 15 9d bc
       -0.027863868 0.14218141 0.08570915 -0.01917524
000170 b1 cf f6 bc 12 15 71 3d 5d d0 05 3d cc b4 04 bf
       -0.030128332 0.058857985 0.032669414 -0.51838374
000180 71 a1 b3 3d 99 d7 3b 3e 2f 49 9c be 75 a0 fc 3d
       0.08771027 0.18343963 -0.30524585 0.12335292
000190 56 dc 50 3e 16 84 63 3e 63 4a 14 3d c4 e0 25 3e
       0.20396551 0.22218356 0.036203753 0.16199023
0001a0 3d 29 6f 3d 50 90 70 3d 22 9f 05 3e 44 a9 59 3e
       0.058388937 0.058731377 0.13048986 0.21255976
0001b0 54 8c 08 bd f4 28 2e be 5e 35 f1 bd 27 41 d6 3c
       -0.033336952 -0.1700781 -0.11777757 0.026154114
0001c0 67 2f aa bd 99 0c 51 3e ad 7e 78 3c f2 ee a2 bd
       -0.083098225 0.20414962 0.015166921 -0.079557315
0001d0 7d 86 54 3e 82 d5 5a be 27 3b 52 bd 42 f8 99 3a
       0.20754428 -0.2137051 -0.051325943 0.001174696
0001e0 e6 a5 9e bd 1e 84 12 3d 99 ab 2f 3e 15 f8 a9 bd
       -0.07746486 0.035770528 0.17155303 -0.08299271
0001f0 de 5f 8b 3e 27 12 a9 3e aa 57 70 bc fb 44 a1 3d
       0.27221578 0.33021662 -0.014669338 0.07874485
000200 d5 6f f7 3d a9 d2 29 bd 46 04 b3 bd 96 fd b5 bc
       0.12081877 -0.041460667 -0.087410495 -0.022215646
000210 11 cf 06 3c 6b 80 99 bd ac 5d 1f 3e 97 28 7f 3d
       0.008228079 -0.07495197 0.15563077 0.06229457
000220 85 80 88 bd 01 3e 49 bb c2 0b 4b bd f2 ba c6 3d
       -0.06665138 -0.0030707123 -0.04957176 0.09703626
000230 bc c5 4e 3e c5 c3 14 3d b1 1d cf bd fd a3 a0 3d
       0.20192617 0.036319513 -0.10113085 0.07843778
000240 d4 29 10 be 30 c7 cb be 44 7d a0 bd e1 d0 13 3e
       -0.14078456 -0.39800406 -0.078363925 0.1443515
000250 5a db cf 3c 68 09 4d 3e 61 1c 29 3d c5 4a d6 3b
       0.02537315 0.2002312 0.04128683 0.006539675
000260 9e 1f 11 3e ec 89 70 3d 9d f7 8d be ec ff 42 bd
       0.14172217 0.058725283 -0.27727976 -0.047607347
000270 78 c7 be 3c 7b 60 70 be f6 f2 15 bd b5 f1 4e bd
       0.023288473 -0.23474304 -0.03660866 -0.05052348
000280 42 a5 90 3d a7 da b1 3d 9e 6a 8f 3c 30 a6 22 be
       0.070627704 0.08684283 0.017506894 -0.15883708
000290 f0 ee 44 be 25 8d 1d 3c 97 d9 0b 3e ba 21 9a 3e
       -0.19231772 0.009616171 0.13657223 0.30103856
0002a0 ad 6a bf bd ef a3 12 be e9 46 d4 bc 67 b2 b1 be
       -0.09346519 -0.14320348 -0.025912719 -0.34706423
0002b0 f1 bf ba be 7c bc 66 be ad 82 c4 bd 7b 33 c1 bd
       -0.36474565 -0.22532839 -0.09595237 -0.09433647
0002c0 c4 df a4 bd 01 a1 bb bd da 15 ca bd 0a 0a b8 bd
       -0.080504924 -0.091615684 -0.09867449 -0.0898629
0002d0 6d bd a0 3d 51 58 d8 3e 59 60 88 3e 43 6d bc bc
       0.0784863 0.4225488 0.26636007 -0.023001319
0002e0 bd 52 4d bd 23 49 24 be c1 49 1b be fe f2 f5 bd
       -0.050127733 -0.16043524 -0.15164854 -0.12009238
0002f0 e3 3c 85 be 25 ea bc be ea 0f 0b 3d 1a 3a bd 3e
       -0.26023015 -0.36897388 0.033950724 0.3695839
000300 7e 61 36 bd 2f a6 a2 bd 91 f3 9f bd 90 ec 58 3e
       -0.04452657 -0.07941853 -0.078101285 0.21183991
000310 ec ac c6 3d 78 58 7d 3d 77 2c a7 be 02 bc 94 3d
       0.09700951 0.06185195 -0.3265111 0.07262422
000320 e2 1f 0b be 2d 03 27 be a9 9c 19 be 5b f4 4b be
       -0.13586381 -0.16309805 -0.15001167 -0.19917433
000330 32 ea 33 bc f6 5f dc 3c 41 71 66 be 94 ce b0 3d
       -0.0109811295 0.026901226 -0.2250414 0.08633152
000340 7e b6 9e be 3f 51 96 bc b4 32 55 3d dc b7 f0 3e
       -0.30998605 -0.018349288 0.052050307 0.47015274
000350 80 96 09 3e de 42 db bd 23 62 8a bc 3c 82 30 be
       0.13436317 -0.10706113 -0.016892498 -0.1723718
000360 77 6a c0 bd 37 29 83 bd 89 f8 05 bd 20 39 c4 3c
       -0.093953066 -0.064043455 -0.032707725 0.02395302
000370 12 2b fe bd 54 32 8d 3d ed 30 36 bd f0 83 d2 bd
       -0.12410559 0.06894365 -0.044480253 -0.10279071
000380 c6 3a 70 bf f4 3f db bc 50 c0 8f 3d fe 47 6e 3d
       -0.9383968 -0.026763894 0.070191026 0.058174126
000390 fb b2 ff 3c f9 b5 7c be 35 84 22 be f7 1b c4 3c
       0.031213274 -0.24678792 -0.15870745 0.023939116
0003a0 d2 15 34 be 4f c2 ed 3d 5a 17 a7 3b ff 3e 44 bc
       -0.17586449 0.11609327 0.0050992193 -0.01197791
0003b0 27 57 99 bd 75 82 86 3b 06 a9 87 3c e7 89 33 3e
       -0.07487326 0.004104907 0.016560089 0.17533074
0003c0 07 68 d5 3c fc 6e 3f be fd 0d b7 3c 8c 1e a0 bc
       0.02605058 -0.18694681 0.022345537 -0.019545816
0003d0 57 3d 3c bd db a6 76 3c f1 ff 85 3d 9f 38 50 bc
       -0.045956936 0.01505443 0.065429576 -0.012708812
0003e0 3d 32 89 bc 3c 4b 9a 3c e3 c7 1a 3d b1 c1 17 3d
       -0.016747588 0.018834703 0.037788283 0.037049953
0003f0 5f cd 63 3b 99 8f 1c bd 4a 92 c8 3d af 41 cd bc
       0.0034759862 -0.038222883 0.097935274 -0.025055734

ccnn1.down3.C_Conv2d1.conv_r.bias f4 [16]
000000 2e 94 f4 bc da e3 89 bd 51 08 74 be 5b cd ec bd
       -0.029855814 -0.06732912 -0.23831297 -0.11562606
000010 bb 9f 0f 3d cb 4c 7b be cd 7a 33 bd f1 da af bd
       0.03506444 -0.24541013 -0.043818284 -0.08586682
000020 97 e4 6f bd 8a 9f 09 3c 7c a6 5b 3d 91 d7 90 3d
       -0.05856761 0.0083998535 0.05362557 0.07072366
000030 68 c5 a0 3d 8d 0d 86 3c e5 ca 2c bd 85 1e 71 be
       0.07850152 0.016363883 -0.042185683 -0.23546799

ccnn1.down3.C_Conv2d1.conv_i.weight f4 [16, 8, 3, 3]
000000 48 83 7c 3c 98 fc 10 b9 c3 17 be 3d ff fd 1c be
       0.015412159 -0.00013827009 0.09281876 -0.15331267
000010 67 ad ea be b6 e8 32 bd 63 15 51 3d 03 5f 8f 3d
       -0.4583542 -0.04367896 0.051045787 0.07000544
000020 06 37 04 3e ae ca 1b be 1a 27 79 3d f5 d9 e9 bd
       0.12911615 -0.15214035 0.060828306 -0.11418525
000030 7e 9d af 3c 21 64 59 3d 61 81 fc bd a9 85 47 3e
       0.021437403 0.053074006 -0.123293646 0.19484581
000040 da 5e 99 3d 41 9c 8b 3d b7 27 e8 bc 19 96 5a 3d
       0.074887946 0.068169124 -0.02833925 0.0533658
000050 ed e2 f4 3d 55 0c 45 be 7a 1a c5 3d 45 0c 7f 3d
       0.11957345 -0.19242986 0.09624191 0.06226756
000060 43 b8 d4 3b 89 ac f1 3e 13 11 96 3d 54 7c da bd
       0.0064916923 0.47201946 0.073274754 -0.10668245
000070 72 60 de bd ec 49 0f be 5e 86 b4 bd ea 76 df bd
       -0.10858239 -0.13993043 -0.08814691 -0.10911353
000080 eb ea f0 bd cb 57 1b 3c d9 fd cd bd 44 49 32 3d
       -0.11763557 0.009481381 -0.10058183 0.043526903
000090 24 ed 4c bd 40 87 17 3e 98 2e 1e be 02 6b 48 3a
       -0.050030842 0.14797688 -0.15447462 0.000764534
0000a0 c3 62 8f 3e b2 a7 b4 bd 58 ad a6 bd 3b 59 6c 3e
       0.28005037 -0.08821048 -0.081385314 0.23080914
0000b0 0b 88 2b 3e ef f7 77 3c 88 c9 a8 bd dd 44 77 bc
       0.16751115 0.015134796 -0.08241564 -0.015092102
0000c0 a0 95 47 3e 35 80 12 3e 2a 20 d4 3d 4c d1 9a bd
       0.19490671 0.1430672 0.10357697 -0.075594515
0000d0 a4 6a 8c 3d 69 0d 2b 3e 63 74 cf bd 6e ee 1c bd
       0.068562776 0.16704334 -0.10129621 -0.03831332
0000e0 97 3b b7 3b 2a a4 d2 3d c9 27 78 3e 31 54 94 3e
       0.0055918205 0.10285218 0.24233927 0.28970483
0000f0 35 ac 15 be 54 0e 21 be b8 61 32 3e da 6e 99 bd
       -0.14616473 -0.15728122 0.17420089 -0.074918464
000100 ba a6 85 3c f7 b7 09 be ec c5 42 bd 15 77 8d be
       0.016314853 -0.13449083 -0.047552034 -0.27629915
000110 ed cf 66 be 8b 4f 3c bd 3b f0 0e be 65 24 fb 3a
       -0.22540255 -0.045974296 -0.13958828 0.0019160627
000120 81 5c 72 3d eb 6d 36 bc c3 7e d6 3d 60 28 1b be
       0.05917025 -0.011134605 0.10473397 -0.1515212
000130 ec 6a 5b 3e 1e 8f 0d bd 02 27 b2 3c 08 10 d1 bd
       0.21427506 -0.034560315 0.021747116 -0.10208136
000140 58 82 cf be 24 8e d8 bd 82 56 fa bc 87 32 16 bd
       -0.40529132 -0.10573986 -0.030558828 -0.03666928
000150 28 8b 7a be e8 44 8f 3e b2 97 c5 be fa a0 ac bb
       -0.24467146 0.2798226 -0.38592297 -0.0052682133
000160 a9 fb dd 3b 68 f3 01 be 73 71 a7 3c c9 04 fd 3d
       0.006774385 -0.12690508 0.020439839 0.12354428
000170 d2 c8 da 3c 18 ae b1 bd ed 69 77 3c 3e 3d c6 3d
       0.026707087 -0.08675784 0.015100938 0.0967965
000180 0e 0c 3e 3b 09 d3 97 bd 0d 65 6a 3e 3d 5c 00 3e
       0.0028998884 -0.07413299 0.2289011 0.12535186
000190 90 7a 67 3d 0a d0 01 3d d4 b1 0b 3e 0e 27 c5 3d
       0.05651337 0.031692542 0.13642055 0.0962659
0001a0 0f b6 31 3d 2e 44 7d 3d f1 11 24 3c 44 6f 23 3e
       0.043386515 0.0618326 0.010014043 0.15960413
0001b0 62 77 97 3d b4 84 71 bc e5 12 a9 3b aa d2 60 bd
       0.07395817 -0.014741112 0.005159723 -0.054888405
0001c0 91 db 0c be c5 fd 54 bb b7 fe e1 bd 1c 8a b0 bd
       -0.13755633 -0.0032499891 -0.11034911 -0.08620092
0001d0 f4 c6 4f bc af a0 45 3e c7 ad 11 be 66 e0 c8 3d
       -0.012681711 0.19299577 -0.14226447 0.098084256
0001e0 77 29 e6 bc 84 2e b1 bd bd d4 be bc 42 a0 94 3d
       -0.028095944 -0.0865145 -0.0232948 0.07257129
0001f0 07 5f 0a be 64 d0 cf 3d fe e3 30 3c e4 53 86 3c
       -0.13512813 0.10147169 0.010796545 0.016397424
000200 46 82 28 3d bc 33 1b bd 73 eb 1a be d7 e3 83 3e
       0.041139863 -0.037891135 -0.15128879 0.25759766
000210 02 23 a4 ba 90 d8 16 3d 3c 2c 47 be 39 3e 69 bc
       -0.001252264 0.036827624 -0.19450468 -0.014236026
000220 27 65 05 be c7 de 43 3d 58 97 56 3e da fe b3 3c
       -0.13026868 0.04781988 0.2095617 0.021972109
000230 51 0a 66 3e 67 1a 3d 3d 60 c5 1c 3e 1b bf 86 3e
       0.22464873 0.046167757 0.15309668 0.26317677
000240 8f ff a9 3e 87 bc 0b 3f f4 41 82 3b 1d 76 84 bd
       0.33202788 0.54584545 0.0039751474 -0.06467841
000250 3b f7 03 3b c9 2e 26 3d 8d 2d 93 bd c9 86 ca bc
       0.0020136375 0.04057196 -0.071864225 -0.024722474
000260 b3 2c 18 be 0b c6 cd bd 6a d3 1c be a8 9f 18 3c
       -0.14860801 -0.10047539 -0.15315023 0.009315409
000270 a2 57 89 3c 05 b1 7c bd 33 91 63 bd f1 98 ad bc
       0.01676542 -0.061692256 -0.055558395 -0.021191092
000280 5a ad 14 bc 05 b0 69 bd 41 36 4a 3d dc 0e 79 be
       -0.009074533 -0.05705263 0.049368147 -0.24322075
000290 f9 20 34 3b 43 26 29 3c 63 30 fa 3d 65 11 e7 3d
       0.0027485474 0.010324064 0.1221626 0.112826146
0002a0 d0 50 be 3c e1 ef 22 3e c5 42 ba 3d 1b 14 c2 3e
       0.023231894 0.15911819 0.090947665 0.37905964
0002b0 86 cb 5c 3f 9f 1f ee 3e 13 ec e4 3d cc 32 9c 3d
       0.8624805 0.465085 0.1117784 0.07626876
0002c0 bc 2c e0 3c fc 3b cd bb 48 9d 66 bb 6e a3 4f 3d
       0.027365081 -0.006263254 -0.0035188962 0.050692968
0002d0 c2 60 8b 3e c9 5d 8b be d7 6f b1 be f7 57 17 bd
       0.27222258 -0.2721999 -0.3465564 -0.036949124
0002e0 f4 f0 ff bb a8 17 17 3d 9b 64 cf bd c6 b4 0a 3e
       -0.0078107063 0.036887795 -0.10126611 0.13545522
0002f0 30 51 38 bc 46 5e 30 3e b3 45 a2 bd 01 49 7d 3e
       -0.011249825 0.17223462 -0.0792345 0.2473488
000300 ae 9f 0f 3d da 93 32 3d 3e f1 5d 3d 0d dc 68 3d
       0.03506439 0.043598033 0.054185145 0.05685048
000310 24 8b 4d 3d b6 82 58 3c 48 d4 6c 3d af 49 de bc
       0.050181523 0.013214758 0.057819635 -0.027134744
000320 63 58 2c be eb 11 ad bb 62 a9 ee bd ef 58 03 be
       -0.16830592 -0.005281677 -0.11653401 -0.12826894
000330 78 e0 25 be 68 6e 42 be 2f c4 5b be ed 78 a2 bd
       -0.1619891 -0.18987429 -0.21461557 -0.07933221
000340 7b 52 f3 bd 7e b7 22 3e eb 3f bc 3d 4f 04 21 be
       -0.11880966 0.15890309 0.09191879 -0.157243
000350 08 6c fa bd 4b 86 9d 3d 3d c0 13 3d 7f 76 05 3e
       -0.122276366 0.0769163 0.036072005 0.13033484
000360 aa 95 33 bd a1 84 7c bd 26 24 87 be 25 2d fd bc
       -0.043843903 -0.061649922 -0.26394767 -0.030905316
000370 f1 c3 0f bd 2a 23 33 be c4 f6 9f 3d fe 45 c1 bd
       -0.035098974 -0.17493883 0.07810739 -0.09437178
000380 8a dd b1 3e c6 86 10 bd 5f f0 1b 3e 72 b1 26 3d
       0.34739333 -0.03528478 0.15228413 0.04069657
000390 bc b8 19 be 89 92 79 bc 5a 6a e4 be 3a b4 4a bd
       -0.15011877 -0.015232691 -0.4461239 -0.049488284
0003a0 09 25 92 be b5 4b 16 bf a6 f5 11 3b 7c e7 b6 bb
       -0.2854388 -0.5870927 0.0022271662 -0.0055817943
0003b0 23 f3 e4 3d 47 8d 05 bd d0 26 9b bd 3b 22 12 3f
       0.11179187 -0.032605436 -0.07575762 0.5708348
0003c0 d1 e9 87 3b ec fe e0 3c a8 09 cb 3e dd 90 85 3b
       0.004147746 0.027465306 0.39655805 0.004076107
0003d0 6c 7c 3a bd 4d cc 95 bd 9f 9a 89 bd 6d e4 91 3b
       -0.045528814 -0.07314358 -0.06718945 0.0044522793
0003e0 27 5f 0e 3d 50 a6 e2 3c 2e c1 4b 3c cc 83 6f 3c
       0.034758713 0.027667195 0.012436194 0.014618825
0003f0 f9 ea fc 3b e3 9a d2 3d b1 9e 00 3e 34 74 ab 3c
       0.0077184406 0.102834485 0.12560536 0.020929433

ccnn1.down3.C_Conv2d1.conv_i.bias f4 [16]
000000 73 e6 c2 3a fb 12 61 3e e4 0d 01 bd e8 b4 2b bc
       0.0014869705 0.21979897 -0.031507388 -0.010480143
000010 44 0f a5 3e 06 89 83 bd 62 d5 16 bd 01 51 05 be
       0.3223821 -0.064226195 -0.03682459 -0.13019182
000020 c6 8b 30 3e ac e1 2a be 24 d3 45 3e e1 1a 4c 3e
       0.1724082 -0.1668765 0.19318825 0.19932128
000030 d6 63 33 3e be fe 67 bd de 42 4c be dc e0 4b 3c
       0.17518553 -0.056639425 -0.19947383 0.012443747

ccnn1.down3.C_conv2d2.conv_r.weight f4 [16, 8, 1, 1]
000000 88 b0 11 be 7b 9b c9 be 9f 2a 1b be 7e 37 33 be
       -0.14227498 -0.39376435 -0.15152977 -0.17501637
000010 07 ad 6a 3b 7c a4 87 3c 52 bb b4 3e a6 3a e0 bd
       0.0035808699 0.016557924 0.35299164 -0.10948686
000020 59 46 2c be 06 c5 bf 3c 9b 5b 0a 3e e8 84 e9 be
       -0.1682371 0.023409378 0.13511507 -0.45609212
000030 4f ab 5e bd b6 3d 8d be ca 69 0f bd c4 07 39 be
       -0.05436259 -0.27586144 -0.035012998 -0.18069369
000040 a1 b1 c4 3e d2 ed 3a 3e 21 2a ac 3d 57 36 0b 3d
       0.3841677 0.18254784 0.08406473 0.03398737
000050 44 49 eb bd 92 23 4e 3e c0 d2 37 3e 33 9c 03 be
       -0.11488584 0.20130756 0.17951488 -0.12852554
000060 d6 f5 c5 3d 4c d2 46 3e ef 27 19 be 29 69 80 3b
       0.0966603 0.1941616 -0.1495664 0.003918786
000070 7c 0e 8a bd 57 79 0d be 20 2f 97 3c d3 71 d0 3c
       -0.06741044 -0.13815819 0.018455088 0.0254449
000080 8e d2 82 bd 71 0b 1b 3e ba 71 e8 3d 23 28 8e be
       -0.06387816 0.15141083 0.113498166 -0.27764997
000090 f9 7a 39 be 6d 15 54 3d f3 c1 d7 3c 2c 43 44 be
       -0.18113317 0.051778246 0.0263376 -0.19166249
0000a0 d7 db e0 be 91 3a ac bd 95 16 76 bd 41 f1 63 3d
       -0.43917724 -0.08409608 -0.06008013 0.05565
0000b0 b5 69 ac bd 39 6b f8 bc 3a 4e 5c 3d 73 14 bb bd
       -0.084185995 -0.030324565 0.05378554 -0.0913476
0000c0 c5 38 5d be 40 ce d1 3d e0 15 b3 bd a6 95 40 be
       -0.21603687 0.10244417 -0.08744407 -0.18807086
0000d0 c6 7b f9 3a fc ae af 3d 63 4a fe bb b7 99 18 3c
       0.001903408 0.085782975 -0.0077603324 0.009313992
0000e0 c9 3e f0 bd 93 02 a3 3d f1 d2 83 3d 02 da 72 ba
       -0.11730725 0.07959475 0.06436718 -0.0009264053
0000f0 7d ce 18 3e b3 c2 53 3e 54 96 1d be 34 f0 f7 bc
       0.14922519 0.2067974 -0.15389377 -0.030265905
000100 56 6f 82 3e 47 44 75 3d 2b 6b 76 be 45 17 4e 3d
       0.25475568 0.059879567 -0.24064319 0.05031516
000110 3f 8c b6 be db fe 09 be 5e a3 70 bc 79 fb cc bd
       -0.35653874 -0.13476126 -0.014687387 -0.10008902
000120 b7 eb 41 3c 39 db 91 be 0c 83 41 3d 03 42 cc bd
       0.011835984 -0.28487566 0.047244117 -0.09973528
000130 7c 53 19 be a9 02 a3 be 54 ef 72 3d 13 3b 0a 3d
       -0.14973253 -0.31837967 0.059310272 0.033747744
000140 8d 2b 6e 3d 0a 60 98 3c 1b 38 45 3e f9 db 9d be
       0.058147002 0.018600482 0.19259684 -0.30831888
000150 c3 f9 db bc 7f 2a 51 3e 12 11 1e 3d 6f af 5e be
       -0.026852494 0.20426367 0.0385905 -0.2174661
000160 72 ec 47 3d 48 c4 30 be 7d a9 10 be ae f6 96 be
       0.048809476 -0.17262375 -0.14127155 -0.29485077
000170 55 f6 8e bd 8b f3 ec be 46 e7 04 bd 23 04 9f 3e
       -0.06980578 -0.4627956 -0.032447122 0.31057844
000180 4d ae a2 be cc 7d 13 be 5e 7c 88 3d dd 1e 20 be
       -0.31773606 -0.14403456 0.06664346 -0.15636773
000190 00 86 56 be 1a f2 86 be c1 25 ee bd e5 80 69 be
       -0.20949554 -0.26356584 -0.11628295 -0.22803076
0001a0 d7 86 b2 3c df e2 8c 3d 87 7c fb bc a8 5a 78 bd
       0.021792812 0.0687921 -0.030699028 -0.06063333
0001b0 70 1f e6 3e ed 94 8e 3e 09 c9 c9 3d 0a 64 7d bb
       0.4494586 0.27847996 0.098527975 -0.0038664364
0001c0 dd b9 5d 3e d6 0e 30 3d 0c 57 af bc 98 55 c7 bd
       0.21652932 0.0429829 -0.021403812 -0.097331226
0001d0 aa 1e b9 bd 8a 9b f7 3d c5 2e 27 be 5e 99 ef be
       -0.09039052 0.120902136 -0.16326435 -0.46796697
0001e0 bf 18 3d be 52 ca c6 3c d0 cb 1a 3e 73 f1 81 3c
       -0.18466471 0.024266396 0.15116811 0.015862202
0001f0 2b 62 41 bd b4 f5 23 3d 31 a2 4c 3d da 15 7f bc
       -0.04721276 0.040029243 0.049959365 -0.015569175

ccnn1.down3.C_conv2d2.conv_r.bias f4 [16]
000000 02 48 9a bd 77 71 88 be 4d 95 3b bd b0 bf 0d be
       -0.07533266 -0.26649067 -0.04579668 -0.13842654
000010 5a 96 57 be 1a 66 a5 3d be 7c ac 3c 38 c4 4b be
       -0.21053448 0.08076115 0.021055575 -0.1989907
000020 59 ca 35 be 20 9e 06 bd e1 73 54 bc b1 df 76 be
       -0.17752971 -0.032865644 -0.012967081 -0.24108769
000030 97 9a 14 be 28 4a a0 3d cc 6f 1f bd 6b 46 90 3d
       -0.14512096 0.07826644 -0.038924977 0.07044681

ccnn1.down3.C_conv2d2.conv_i.weight f4 [16, 8, 1, 1]
000000 67 60 8a 3e 18 9a 3f be a0 60 0f 3e 93 49 1e 3e
       0.27026674 -0.18711126 0.14001703 0.15457754
000010 bc bf 59 3d cb e8 41 3e 67 d9 e6 3d 87 b0 a5 3e
       0.053161368 0.1893646 0.11271935 0.32361242
000020 7d 7f 47 be 9f 40 77 be 60 8b 3d 3e 88 80 eb bd
       -0.19482227 -0.24145745 0.18510199 -0.11499125
000030 01 b5 17 3b 89 6c 59 3e 7d e1 01 3e 77 1a ca bd
       0.0023148658 0.21232809 0.12683673 -0.09868329
000040 2c 2f 50 3e d5 9d df 3d 62 f3 ae 3d 92 09 36 3e
       0.20330495 0.10918776 0.08542515 0.17777088
000050 10 ad 21 be 9c 3f ad bd d7 af a4 3e 41 f2 ae bd
       -0.15788674 -0.08459398 0.32165405 -0.085423
000060 43 55 b9 3d 06 ca 07 be d9 af 35 3d 31 0c 72 be
       0.090494655 -0.1326066 0.044357155 -0.23637463
000070 f6 a9 ab bd 3e 07 1e bd 9b 96 97 be 60 09 89 be
       -0.08382027 -0.038581125 -0.2960709 -0.26764965
000080 ef dd 00 be 46 9f fc bd cb a5 64 3c 48 17 39 3e
       -0.12584661 -0.123350665 0.013955544 0.18075287
000090 d3 36 4d bd a9 f3 45 3d 3b 7d 34 be a2 4e 84 be
       -0.050101113 0.048328076 -0.17625897 -0.25841242
0000a0 e9 b9 69 bd d8 74 53 bd b5 d1 d2 ba 21 ee 57 3d
       -0.057062063 -0.051625103 -0.0016084226 0.05271733
0000b0 95 6c 80 be 8b f4 82 bb d7 df aa 3d 92 ac 4d bb
       -0.25082842 -0.003996437 0.08343475 -0.0031383377
0000c0 55 3b 81 be dd b0 12 3d 13 d9 a2 bd 73 55 72 ba
       -0.2524058 0.0358132 -0.0795156 -0.00092443003
0000d0 24 1b 4e 3d c2 a5 57 bd 58 42 a7 bd aa 3d 9c 3d
       0.050318852 -0.052648313 -0.08166951 0.07628949
0000e0 78 61 1f 3c e7 96 ad 3d 0d 5e 07 3e 77 07 7d 3e
       0.009727828 0.08476048 0.13219471 0.24709879
0000f0 22 43 d1 bd 50 8a 8f 3e 19 ae 5a be 26 4a 24 3d
       -0.10217883 0.28035212 -0.21355475 0.040109776
000100 1c ab 92 be 02 3d 4f 3d f0 54 a2 3d d6 6b 14 3e
       -0.2864617 0.05059529 0.07926357 0.14494261
000110 15 51 8e 3e 26 26 fd 3d c8 10 c2 bd f4 1e 97 bd
       0.27796236 0.12360792 -0.09475857 -0.07378951
000120 37 2b 09 3f 16 8c 8b bc 01 6f f3 3b 8a 46 c8 3e
       0.53581566 -0.017034572 0.007429004 0.39116317
000130 22 be 9c ba 0e 44 0c 3f 83 07 f2 bb 98 59 39 3d
       -0.001195852 0.54791343 -0.0073861494 0.04525146
000140 ec 0a 88 bd 05 22 35 be 30 9a 1b be f4 24 28 bd
       -0.06642708 -0.17688759 -0.15195537 -0.041050866
000150 54 4f 86 3d 28 30 1a 3d 38 73 a1 bd 56 18 43 3d
       0.065580994 0.03764358 -0.07883304 0.04763063
000160 40 88 5c be bf 19 93 be 44 2c 0f be 18 e8 7a 3d
       -0.2153635 -0.2873058 -0.1398173 0.061256498
000170 c9 2b de 3d dc 6b 32 be e6 58 fb 3c f6 a2 ad 3b
       0.10848195 -0.17423958 0.030682039 0.0052989675
000180 96 da 9a bd 2d 86 d8 bd 76 57 6c be 6c 8e 1d 3e
       -0.07561223 -0.10572467 -0.23080239 0.15386361
000190 40 f3 fe 3d 86 5e 5f 3e 36 6a 16 be 81 75 50 3d
       0.1244874 0.21813402 -0.14688954 0.05089331
0001a0 b5 25 12 be 92 cf 9a be da f6 ec 3d d9 9e cc 3d
       -0.14272197 -0.3023649 0.11570521 0.09991235
0001b0 3a ff 95 bd 2e c6 a2 bd 2e 70 92 bd ec cd 58 3e
       -0.07324071 -0.07947956 -0.07150303 0.21172303
0001c0 87 a8 d1 be a2 0d a5 3d 53 a1 8f be 94 21 92 bc
       -0.4094889 0.08059241 -0.28052768 -0.017838277
0001d0 c0 7a 7c bd dd ee 9f 3a 93 71 59 bc db 45 84 3e
       -0.0616405 0.0012201924 -0.013271707 0.25834545
0001e0 6c 78 c6 3d ce 21 bc be 38 a5 f5 3d 90 0e 30 3e
       0.096909374 -0.3674454 0.119944036 0.17193055
0001f0 27 25 13 3c ab d7 f8 3d 60 dc 91 bc ee ff f8 bc
       0.008981026 0.121505104 -0.017805278 -0.030395474

ccnn1.down3.C_conv2d2.conv_i.bias f4 [16]
000000 2c c2 7f 3e d1 8e 40 be b7 f5 5e bd d4 20 de 3d
       0.24976414 -0.1880448 -0.05443355 0.10846105
000010 19 ea 7e be 65 c4 89 bd 34 8d b9 3d 7f 65 d1 3d
       -0.24893989 -0.067269124 0.090601355 0.10224437
000020 71 f4 56 be 74 d7 1c 3e 88 52 78 3c e0 fe 91 bd
       -0.20991684 0.15316564 0.015156396 -0.07128692
000030 91 29 86 be e5 66 8e bd cf df ae 3d ff 24 26 3d
       -0.26203588 -0.06953219 0.08538782 0.040562626

ccnn1.down4.C_Conv2d1.conv_r.weight f4 [32, 16, 3, 3]
000000 6c 5b 8e bb c5 7f 8b bc 95 54 50 bd 04 54 7b bd
       -0.0043443944 -0.017028699 -0.050861914 -0.06135942
000010 fe 63 c0 bd 07 87 d3 bd 89 00 1b bd 46 9a 4b 3c
       -0.09394072 -0.10328489 -0.037842307 0.012426918
000020 92 ca 40 bd 88 47 99 bd b0 df a4 bd 96 63 0d be
       -0.047068186 -0.07484347 -0.080504775 -0.1380752
000030 14 8e a8 bc 94 c6 bb bc c8 5f 13 bd b0 5e 57 3b
       -0.02057556 -0.022921838 -0.035980016 0.0032862835
000040 91 f9 84 3c 6f cd e3 bd e0 09 69 3d 35 b0 13 bb
       0.016232284 -0.11123168 0.056894183 -0.0022535447
000050 e8 6c 21 bc 90 f5 f8 3d fc 89 ea 3c a4 96 9f bb
       -0.009852625 0.12156212 0.02863025 -0.0048702527
000060 76 1d 8a 3e dc 03 46 3e a5 f6 7e 3e 10 c9 cc 3d
       0.26975602 0.1933741 0.24898775 0.09999287
000070 52 0b f1 3c e6 31 b1 3d 44 30 b8 3d cd 3f bb 3b
       0.029424343 0.086520955 0.08993581 0.0057143928
000080 e0 b7 ae 3d a6 ff 64 3d cf 29 2a 3d 57 54 16 3c
       0.08531165 0.055907868 0.041543778 0.009175382
000090 88 1b 76 bc 01 f8 70 3d e8 d4 62 3d d8 ad 93 bc
       -0.015021212 0.058830265 0.055378824 -0.018027231
0000a0 7c ab 68 bd 12 f2 f1 3c 9e 71 ad bc cf a2 71 bd
       -0.056804165 0.029534373 -0.021172341 -0.058993157
0000b0 01 42 16 bd d6 77 14 be 7c 3a 11 be dd e6 69 be
       -0.03668404 -0.14498839 -0.14182466 -0.22841974
0000c0 3c ca c5 bd a1 7a de bd 23 d6 28 be 9a 21 4f be
       -0.09657714 -0.10863233 -0.16487937 -0.20227662
0000d0 02 27 5d be 1c 20 6e be a2 9b b3 3d e2 69 48 3d
       -0.21596912 -0.23254436 0.08769919 0.048929103
0000e0 24 98 05 3e 61 30 0c 3d d7 87 76 3d 17 d1 e1 3d
       0.13046318 0.034225825 0.06018814 0.11026209
0000f0 87 b6 c5 3d fa cb b0 3d ed 75 9b 3d 8b 0a 7a 3d
       0.09653955 0.086326554 0.07590852 0.06104521
000100 f2 8c 5a 3c 49 45 71 3d 59 1a 05 3d af 9e 40 3d
       0.013339268 0.058903966 0.03249583 0.047026332
000110 cd 65 11 3c f9 45 e5 3d 64 39 a2 3d c7 11 32 3e
       0.008874369 0.11194987 0.07921103 0.17389594
000120 5e 7f e0 3c f4 99 5f bc 82 3f 04 bd bc 8f ac bc
       0.027404483 -0.013647545 -0.03228713 -0.021064632
000130 e5 16 84 bd c3 4a 80 bd 6d 18 be bb 37 f0 21 bd
       -0.06449679 -0.0626426 -0.0058012516 -0.039535727
000140 94 e7 22 bc 17 ad aa bb 29 5a 9a bd 75 61 a7 bd
       -0.009942908 -0.005208622 -0.07536728 -0.08172885
000150 9d dc 35 bd cd 9f 86 bd 22 29 20 bc 77 ec 44 3d
       -0.044399846 -0.06573448 -0.009775432 0.048077073
000160 d9 e4 24 3d 67 4d fe 3c 41 da bf bd ac 82 02 be
       0.04025731 0.031042768 -0.093678005 -0.1274516
000170 bc a0 df bd fe a8 01 be 87 2a b6 bd c5 2f d9 bd
       -0.109193295 -0.12662122 -0.0889483 -0.106048144
000180 d7 94 b8 bd 30 97 0d be b5 12 37 be ff 3c 06 3e
       -0.09012764 -0.13827205 -0.1787823 0.13109206
000190 eb ca 26 3e 48 f6 7e 3e 93 4c 04 3e 30 33 bc 3d
       0.16288345 0.24898636 0.12919836 0.09189451
0001a0 f7 ea ca 3d ec 40 e1 3d 50 29 be 3d 67 1b 31 3e
       0.09908097 0.10998711 0.092852235 0.1729561
0001b0 25 9a 8e bd ea dd 8a bd fa da 23 be 71 f1 c6 bd
       -0.069629945 -0.06780608 -0.16001502 -0.0971402
0001c0 5c 28 09 bc bb 83 1a be 03 32 d6 bd 74 86 00 be
       -0.008371439 -0.15089314 -0.10458758 -0.1255129
0001d0 cc a6 3e be 4d 44 9a be 89 03 6e be a7 e7 95 be
       -0.18618315 -0.30130234 -0.23243536 -0.292783
0001e0 33 3c 85 be c2 61 1f be 32 8b 66 be f7 f0 4e be
       -0.2602249 -0.15564635 -0.22514036 -0.20209108
0001f0 91 9e 5b be c3 14 84 be 0d b5 70 bc c2 37 9e bd
       -0.21447207 -0.2579709 -0.014691603 -0.07725479
000200 d9 4b 34 3d f3 79 c1 3d 65 38 a8 3b 3c ec c7 3b
       0.044017646 0.09447088 0.005133676 0.0061011594
000210 17 1c 02 3e 72 b2 a3 bb 5e 2c ad 3d a9 d5 64 38
       0.12706028 -0.0049956376 0.08455728 5.4558423e-05
000220 d5 7d f9 3b da 54 1d bd 0b 60 8d bd 4d c8 4a bd
       0.0076138773 -0.038411 -0.06903084 -0.049507428
000230 bd bb 10 bd d9 df 82 bd 68 34 1c 3c 4c 65 ed bd
       -0.03533529 -0.06390352 0.009533979 -0.115915865
000240 3f 78 a2 3d 17 2f c2 bc f8 ac 2b 3d 1b a5 aa 3d
       0.07933091 -0.023704095 0.041913003 0.083322726
000250 0e 8e 87 3d 20 56 cf 3c 8f 73 d9 3c 4f 34 ab 3c
       0.06618892 0.025309622 0.02654436 0.020898966
000260 e2 e4 f1 3c c4 46 46 3d 04 07 88 3b d0 ee 8e 3b
       0.029528085 0.04840733 0.004151227 0.0043619648
000270 7b 5b ae 3c a0 a0 79 3d b4 d9 8f bd 4e ce 57 bd
       0.021283856 0.0609442 -0.070239455 -0.05268698
000280 47 31 bc bc 1b a0 b8 3c f8 52 6e bd b7 88 cc bd
       -0.022972716 0.022537282 -0.058184594 -0.09987014
000290 5c 1e 9b bd f0 1f 06 3d f2 39 8c 3b 9d 3c 7c bd
       -0.0757415 0.0327453 0.0042793686 -0.061581243
0002a0 89 ec 0f bd 9b 08 4c bd 35 83 d0 bc 96 ab 8d bd
       -0.035137687 -0.049812894 -0.02545319 -0.06917493
0002b0 be 0e 0d bd 97 56 1e bc 57 d8 33 be 30 12 49 bd
       -0.034437887 -0.009664199 -0.17562996 -0.04908961
0002c0 22 b3 73 bd 2e 43 ec 38 28 48 63 3c 67 f8 8b bd
       -0.059497006 0.0001126587 0.013872184 -0.06834488
0002d0 37 64 ff bc 84 d4 39 bd 78 44 5e bd 3a 40 9f bc
       -0.031175716 -0.045368686 -0.054264516 -0.019439805
0002e0 83 7f b7 3c 9e 1d 4d 3d 74 9b 99 bd 46 3a d3 3b
       0.02239967 0.050077073 -0.075003535 0.0064461557
0002f0 dd 1c 6c bd af 1f 8a bd a0 31 1a bd 11 d3 00 be
       -0.057644714 -0.067443244 -0.037644982 -0.12580515
000300 68 5b 83 bd e7 ac e3 bd bb 92 41 bd 02 c9 1a be
       -0.06413919 -0.11116963 -0.047259074 -0.15115741
000310 6a 30 c9 bd e5 58 10 be 3c 94 b3 bc 04 99 af 3c
       -0.098236874 -0.1409641 -0.02192127 0.021435268
000320 bf d7 88 bc b4 e3 81 bc 31 c6 67 3b 6b 2f 25 3d
       -0.016704438 -0.015855648 0.0035365934 0.040328424
000330 49 5a 8b 3d 5d c9 28 bc e0 73 aa 3c 6d d7 13 bd
       0.0680433 -0.010301915 0.020807207 -0.036094118
000340 5a ad d7 bc 57 71 3e bd e3 1c e0 3c 5b 30 5a bd
       -0.026327778 -0.046494808 0.027357524 -0.05326877
000350 a1 5c 21 bc 69 7f a6 bd c9 7f 53 3c bd 77 3c 3d
       -0.009848745 -0.0812977 0.012908884 0.04601263
000360 a7 f8 86 bd 48 5c 19 bd 45 12 e2 bc 42 f2 00 bd
       -0.065903954 -0.037441522 -0.027596602 -0.031481035
000370 b6 3c ac bc a8 fc f6 3c 8d 97 99 bd e7 2e 01 be
       -0.021025043 0.030149773 -0.07499609 -0.12615548
000380 c3 39 9e bc 66 b5 75 bd e4 b9 76 bc 25 61 a0 bd
       -0.019314652 -0.05998745 -0.015058968 -0.07831029
000390 67 2a 06 be d2 13 b0 bd ce 4c 07 be f4 09 f3 bd
       -0.13102113 -0.085975304 -0.13212892 -0.11867133
0003a0 57 2a 14 bd 71 f5 b7 bd 81 26 3d be 0f 1c 38 be
       -0.03617319 -0.08982361 -0.1847172 -0.17979454
0003b0 52 d5 15 be 01 9c c7 bd 47 4b f6 bd db 88 8c bd
       -0.14632156 -0.09746552 -0.12026077 -0.068620406
0003c0 4c 82 c5 bd d2 09 1c bc 47 82 1a be 2a 8d 5d bc
       -0.09643993 -0.009523826 -0.1508876 -0.013522426
0003d0 4b c9 52 bc a2 aa fb 3b 02 18 cc bc cc 7f a8 bd
       -0.012865375 0.007680253 -0.024913792 -0.082275
0003e0 98 6a b3 3c 59 37 08 3d 86 67 07 3e d0 c7 56 3c
       0.021901414 0.03325591 0.13223085 0.013109162
0003f0 f4 86 c1 bc 9b ab d9 bd ff 50 2e bd 85 60 e9 3a
       -0.023623921 -0.10628434 -0.042557713 0.0017805254

ccnn1.down4.C_Conv2d1.conv_r.bias f4 [32]
000000 8b d0 8b be 52 f5 17 be 4f 6b ab bd f4 92 21 be
       -0.27307543 -0.14839676 -0.08370077 -0.15778714
000010 1e 83 2b be e0 39 38 be a3 1b b2 bd 1b 0c 6a be
       -0.16749236 -0.17990828 -0.086966775 -0.2285618
000020 5b 03 04 be f5 b3 85 be 5f d1 00 bd e0 68 cc bd
       -0.12891905 -0.2611386 -0.03144967 -0.09980941
000030 64 ca 0d bd 31 7a 82 be b6 94 1f be 47 fe dc bd
       -0.034616843 -0.2548385 -0.15584072 -0.10790687
000040 6d 0c c4 bd 8c 8b 3d be 29 6d 68 bd fc c5 4e bc
       -0.095726825 -0.18510264 -0.05674473 -0.012620445
000050 be b1 68 be 28 ff 7f 3c 85 ab 96 bd 35 14 13 be
       -0.22724053 0.015624799 -0.073569335 -0.14363177
000060 54 b1 75 bd 76 f2 5e be 05 55 fa bc 27 5c 38 be
       -0.059983566 -0.21772179 -0.030558119 -0.18003903
000070 28 f2 50 be 89 9a 5a bd 1a 30 6b be a4 79 7a be
       -0.20404875 -0.053370032 -0.22967568 -0.24460465
